…
                  verbose: False                         
          which_direction: AtoB                          
              which_epoch: latest                        
----------------- End -------------------
dataset [AlignedDataset] was created
#training images = 1057
loss_names ['G_GAN', 'G_L1', 'D_real', 'D_fake', 'G_VGG', 'G_CLS', 'G_local', 'D_real_local', 'D_fake_local', 'G_GAN_local', 'G']
visuals ['real_A', 'fake_B', 'real_B', 'fake_B1']
model_names ['D', 'D_Cls', 'GLEyel', 'GLEyer', 'GLNose', 'GLMouth', 'GLHair', 'GLBG', 'GCombine']
[NLayerDiscriminatorCls(
  (model0): Sequential(
    (0): Conv2d(3, 64, kernel_size=(4, 4), stride=(2, 2), padding=(1, 1))
    (1): LeakyReLU(negative_slope=0.2, inplace=True)
    (2): Conv2d(64, 128, kernel_size=(4, 4), stride=(2, 2), padding=(1, 1), bias=False)
    (3): BatchNorm2d(128, eps=1e-05, momentum=0.1, affine=True, track_running_stats=True)
    (4): LeakyReLU(negative_slope=0.2, inplace=True)
    (5): Conv2d(128, 256, kernel_size=(4, 4), stride=(2, 2), padding=(1, 1), bias=False)
    (6): BatchNorm2d(256, eps=1e-05, momentum=0.1, affine=True, track_running_stats=True)
    (7): LeakyReLU(negative_slope=0.2, inplace=True)
  )
  (model1): Sequential(
    (0): Conv2d(256, 512, kernel_size=(4, 4), stride=(1, 1), padding=(1, 1), bias=False)
    (1): BatchNorm2d(512, eps=1e-05, momentum=0.1, affine=True, track_running_stats=True)
    (2): LeakyReLU(negative_slope=0.2, inplace=True)
    (3): Conv2d(512, 1, kernel_size=(4, 4), stride=(1, 1), padding=(1, 1))
  )
  (model2): Sequential(
    (0): Conv2d(256, 512, kernel_size=(4, 4), stride=(2, 2), padding=(1, 1), bias=False)
    (1): BatchNorm2d(512, eps=1e-05, momentum=0.1, affine=True, track_running_stats=True)
    (2): LeakyReLU(negative_slope=0.2, inplace=True)
    (3): Conv2d(512, 512, kernel_size=(4, 4), stride=(2, 2), padding=(1, 1), bias=False)
    (4): BatchNorm2d(512, eps=1e-05, momentum=0.1, affine=True, track_running_stats=True)
    (5): LeakyReLU(negative_slope=0.2, inplace=True)
    (6): Conv2d(512, 3, kernel_size=(16, 16), stride=(1, 1), bias=False)
  )
), Sequential(
  (0): Conv2d(3, 64, kernel_size=(4, 4), stride=(2, 2), padding=(1, 1))
  (1): LeakyReLU(negative_slope=0.2, inplace=True)
  (2): Conv2d(64, 128, kernel_size=(4, 4), stride=(2, 2), padding=(1, 1), bias=False)
  (3): BatchNorm2d(128, eps=1e-05, momentum=0.1, affine=True, track_running_stats=True)
  (4): LeakyReLU(negative_slope=0.2, inplace=True)
  (5): Conv2d(128, 256, kernel_size=(4, 4), stride=(2, 2), padding=(1, 1), bias=False)
  (6): BatchNorm2d(256, eps=1e-05, momentum=0.1, affine=True, track_running_stats=True)
  (7): LeakyReLU(negative_slope=0.2, inplace=True)
), Conv2d(3, 64, kernel_size=(4, 4), stride=(2, 2), padding=(1, 1)), LeakyReLU(negative_slope=0.2, inplace=True), Conv2d(64, 128, kernel_size=(4, 4), stride=(2, 2), padding=(1, 1), bias=False), BatchNorm2d(128, eps=1e-05, momentum=0.1, affine=True, track_running_stats=True), LeakyReLU(negative_slope=0.2, inplace=True), Conv2d(128, 256, kernel_size=(4, 4), stride=(2, 2), padding=(1, 1), bias=False), BatchNorm2d(256, eps=1e-05, momentum=0.1, affine=True, track_running_stats=True), LeakyReLU(negative_slope=0.2, inplace=True), Sequential(
  (0): Conv2d(256, 512, kernel_size=(4, 4), stride=(1, 1), padding=(1, 1), bias=False)
  (1): BatchNorm2d(512, eps=1e-05, momentum=0.1, affine=True, track_running_stats=True)
  (2): LeakyReLU(negative_slope=0.2, inplace=True)
  (3): Conv2d(512, 1, kernel_size=(4, 4), stride=(1, 1), padding=(1, 1))
), Conv2d(256, 512, kernel_size=(4, 4), stride=(1, 1), padding=(1, 1), bias=False), BatchNorm2d(512, eps=1e-05, momentum=0.1, affine=True, track_running_stats=True), LeakyReLU(negative_slope=0.2, inplace=True), Conv2d(512, 1, kernel_size=(4, 4), stride=(1, 1), padding=(1, 1)), Sequential(
  (0): Conv2d(256, 512, kernel_size=(4, 4), stride=(2, 2), padding=(1, 1), bias=False)
  (1): BatchNorm2d(512, eps=1e-05, momentum=0.1, affine=True, track_running_stats=True)
  (2): LeakyReLU(negative_slope=0.2, inplace=True)
  (3): Conv2d(512, 512, kernel_size=(4, 4), stride=(2, 2), padding=(1, 1), bias=False)
  (4): BatchNorm2d(512, eps=1e-05, momentum=0.1, affine=True, track_running_stats=True)
  (5): LeakyReLU(negative_slope=0.2, inplace=True)
  (6): Conv2d(512, 3, kernel_size=(16, 16), stride=(1, 1), bias=False)
), Conv2d(256, 512, kernel_size=(4, 4), stride=(2, 2), padding=(1, 1), bias=False), BatchNorm2d(512, eps=1e-05, momentum=0.1, affine=True, track_running_stats=True), LeakyReLU(negative_slope=0.2, inplace=True), Conv2d(512, 512, kernel_size=(4, 4), stride=(2, 2), padding=(1, 1), bias=False), BatchNorm2d(512, eps=1e-05, momentum=0.1, affine=True, track_running_stats=True), LeakyReLU(negative_slope=0.2, inplace=True), Conv2d(512, 3, kernel_size=(16, 16), stride=(1, 1), bias=False)]
…
